…
efine sampling parameters and prompts\r\nsampling_params = SamplingParams(temperature=0.8, top_p=0.95)\r\nprompts = [\"Hello, my name is\", \"The future of AI is\"]\r\n\r\n# Generate text using the specified model and parameters in vLLM\r\noutputs = vllm_model.generate(prompts, sampling_params)\r\n\r\n# Print the generated texts\r\nfor output in outputs:\r\n    print(f\"Prompt: {output.prompt}, Generated text: {output.outputs[0].text}\")\r\n```\r\n\r\nError:\r\n\r\n```\r\nException has occurred: OSError\r\nIncorrect path_or_model_id: 'GPT2LMHeadModel(\r\n  (transformer): GPT2Model(\r\n    (wte): Embedding(50257, 768)\r\n    (wpe): Embedding(1024, 768)\r\n    (drop): Dropout(p=0.1, inplace=False)\r\n    (h): ModuleList(\r\n      (0-11): 12 x GPT2Block(\r\n        (ln_1): LayerNorm((768,), eps=1e-05, elementwise_affine=True)\r\n        (attn): GPT2Attention(\r\n          (c_attn): Conv1D()\r\n          (c_proj): Conv1D()\r\n          (attn_dropout): Dropout(p=0.1, inplace=False)\r\n          (resid_dropout): Dropout(p=0.1, inplace=False)\r\n        )\r\n        (ln_2): LayerNorm((768,), eps=1e-05, elementwise_affine=True)\r\n        (mlp): GPT2MLP(\r\n          (c_fc): Conv1D()\r\n          (c_proj): Conv1D()\r\n          (act): NewGELUActivation()\r\n          (dropout): Dropout(p=0.1, inplace=False)\r\n        )\r\n      )\r\n    )\r\n    (ln_f): LayerNorm((768,), eps=1e-05, elementwise_affine=True)\r\n  )\r\n  (lm_head): Linear(in_features=768, out_features=50257, bias=False)\r\n)'. Please provide either the path to a local folder or the repo_id of a model on the Hub.\r\nhuggingface_hub.errors.HFValidationError: Repo id must use alphanumeric chars or '-', '_', '.', '--' and '..' are forbidden, '-' and '.' cannot start or end the name, max length is 96: 'GPT2LMHeadModel(\r\n  (transformer): GPT2Model(\r\n    (wte): Embedding(50257, 768)\r\n    (wpe): Embedding(1024, 768)\r\n    (drop): Dropout(p=0.1, inplace=False)\r\n    (h): ModuleList(\r\n      (0-11): 12 x GPT2Block(\r\n        (ln_1): LayerNorm((768,), eps=1e-05, elementwise_affine=True)\r\n        (attn): GPT2Attention(\r\n          (c_attn): Conv1D()\r\n          (c_proj): Conv1D()\r\n          (attn_dropout): Dropout(p=0.1, inplace=False)\r\n          (resid_dropout): Dropout(p=0.1, inplace=False)\r\n        )\r\n        (ln_2): LayerNorm((768,), eps=1e-05, elementwise_affine=True)\r\n        (mlp): GPT2MLP(\r\n          (c_fc): Conv1D()\r\n          (c_proj): Conv1D()\r\n          (act): NewGELUActivation()\r\n          (dropout): Dropout(p=0.1, inplace=False)\r\n        )\r\n      )\r\n    )\r\n    (ln_f): LayerNorm((768,), eps=1e-05, elementwise_affine=True)\r\n  )\r\n  (lm_head): Linear(in_features=768, out_features=50257, bias=False)\r\n)'.\r\n\r\nThe above exception was the direct cause of the following exception:\r\n\r\n  File \"/lfs/ampere1/0/brando9/gold-ai-olympiad/py_src/training/maf_self_improv_train.py\", line 35, in <module>\r\n    vllm_model = LLM(model=model)\r\n                 ^^^^^^^^^^^^^^^^\r\nOSError: Incorrect path_or_model_id: 'GPT2LMHeadModel(\r\n  (transformer): GPT2Model(\r\n    (wte): Embedding(50257, 768)\r\n    (wpe): Embedding(1024, 768)\r\n    (drop): Dropout(p=0.1, inplace=False)\r\n    (h): ModuleList(\r\n      (0-11): 12 x GPT2Block(\r\n        (ln_1): LayerNorm((768,), eps=1e-05, elementwise_affine=True)\r\n        (attn): GPT2Attention(\r\n          (c_attn): Conv1D()\r\n          (c_proj): Conv1D()\r\n          (attn_dropout): Dropout(p=0.1, inplace=False)\r\n          (resid_dropout): Dropout(p=0.1, inplace=False)\r\n        )\r\n        (ln_2): LayerNorm((768,), eps=1e-05, elementwise_affine=True)\r\n        (mlp): GPT2MLP(\r\n          (c_fc): Conv1D()\r\n          (c_proj): Conv1D()\r\n          (act): NewGELUActivation()\r\n          (dropout): Dropout(p=0.1, inplace=False)\r\n        )\r\n      )\r\n    )\r\n    (ln_f): LayerNorm((768,), eps=1e-05, elementwise_affine=True)\r\n  )\r\n  (lm_head): Linear(in_features=768, out_features=50257, bias=False)\r\n)'. Please provide either the path to a local folder or the repo_id of a model on the Hub.\r\n```", "4847": "### 🚀 The feature, motivation and pitch\n\nSimilar to `benchmarks/benchmark_serving.py`, the throughput and latency benchmark should be able to write their metrics to JSON file for result aggregated so we don't need to parse the log data. 
…
